results/UNSW/UNSW_model/Euclidean_model_dim_2_std_client_100_iter_100_lr_0.0001_sub_0.1_localEpochs_30.npy (npy, 440 bytes, 1 tensors)

array f4 [39, 2]
0.042846706 0.22790448 -0.19647187 -0.14277282 -0.09625674 0.16228649 -0.0041319425 0.2984292
0.027706947 0.14768587 0.17693737 0.18506444 -0.06587136 0.04521667 0.04562472 0.1939674
0.30977836 0.32846773 0.07321874 0.16221258 0.18392438 0.32551605 -0.060151566 0.31006882
0.0792544 0.14674565 0.5688362 -0.26721746 -0.08669418 0.056372017 -0.07265329 0.41970998
-0.120042376 -0.04359355 -0.03227821 -0.13098866 -0.15802874 0.42356417 0.22282523 0.18382359
0.26386875 -0.02393903 0.34361517 -0.16774072 -0.018339897 0.046627168 0.34214845 0.25156078
-2.4571782e-05 0.1575233 0.31093684 0.38712794 0.28952733 0.1273592 0.5886551 -0.008114139
0.34938726 -0.10735361 0.00072676456 0.0646298 0.3065633 0.2181132 -0.06751124 0.2809402
0.3680291 0.01956019 0.23688814 0.26787928 0.40161014 0.46232373 -0.105424166 0.061328307
0.28887087 0.4046907 0.47174764 0.38794902 0.4336547 -0.06202888
00000000: 0780 2f3d cb5f 693e ec2f 49be 0a33 12be
00000010: 4122 c5bd 6e2e 263e 3f65 87bb b6cb 983e
00000020: aef9 e23c f73a 173e 122f 353e 8881 3d3e
00000030: 90e7 86bd 1d35 393d fde0 3a3d 649f 463e
00000040: 459b 9e3e ec2c a83e b5f3 953d 0e1b 263e
00000050: ac56 3c3e 0aaa a63e 7d61 76bd 57c1 9e3e
00000060: 2250 a23d 7e44 163e 409f 113f bad0 88be
00000070: b88c b1bd 58e6 663d 40cb 94bd 3ae4 d63e
00000080: c7d8 f5bd 268f 32bd 2836 04bd e421 06be
00000090: 49d2 21be 67dd d83e 4c2c 643e 403c 3c3e
000000a0: ce19 873e c91b c4bc 54ee af3e 39c4 2bbe
000000b0: 8d3d 96bc 21fc 3e3d 152e af3e 93cc 803e
000000c0: 801f ceb7 ca4d 213e 1d33 9f3e a235 c63e
000000d0: ed3c 943e 736a 023e 1ab2 163f 2af1 04bc
000000e0: e3e2 b23e 36dc dbbd 5884 3e3a a15c 843d
000000f0: ddf5 9c3e 1159 5f3e 5543 8abd 65d7 8f3e
00000100: 4f6e bc3e b13c a03c ce92 723e 7927 893e
00000110: d89f cd3e b2b5 ec3e a0e8 d7bd 6433 7b3d
00000120: e2e6 933e 9f33 cf3e e888 f13e 41a1 c63e
00000130: fd07 de3e ff11 7ebd
