results/UNSW/UNSW_model/Grassman_model_dim_2_std_client_100_iter_30_lr_0.0001_sub_0.1_localEpochs_30.npy (npy, 440 bytes, 1 tensors)

array f4 [39, 2]
0	0xbe28dec2	-0.16491225
1	0xbe00f906	-0.12594995
2	0xbd280227	-0.041017678
3	0xbd14a182	-0.03628684
4	0xbdee003f	-0.11621141
5	0xbe283ba6	-0.16429004
6	0xbe2d0d98	-0.16899717
7	0xbe467136	-0.19379124
8	0xbe19c53a	-0.15016642
9	0xbdbf7918	-0.09349269
10	0xbdd22bf4	-0.1026229
11	0xbc9b403e	-0.018951531
12	0xbcadc6c2	-0.02121294
13	0xbd72ffe4	-0.059326068
14	0xbdd5d649	-0.10441262
15	0xbdc13871	-0.094345935
16	0xbe5343e4	-0.20631367
17	0xbd1f0845	-0.038826246
18	0xbd53ba8c	-0.051691577
19	0xbd831601	-0.06400681
20	0xbe5c0196	-0.2148498
21	0xbde87515	-0.113504566
22	0xbe1787d7	-0.14797913
23	0xbe6ddc99	-0.23228683
24	0xbe0981c3	-0.13428406
25	0xbd5bc377	-0.053653207
26	0xbe77178a	-0.24130073
27	0x3edd29da	0.43195993
28	0xbd9691c8	-0.07352024
29	0xbdaf6557	-0.08564251
30	0xbe0253d4	-0.1272729
31	0xbe95c09d	-0.29248515
32	0xbd8b76f0	-0.06809795
33	0xbd4ce53a	-0.050023295
34	0xbd45dd57	-0.04830679
35	0x3d4a6e75	0.049421746
36	0xbdd3f9c2	-0.10350372
37	0xbead4e7c	-0.3384894
38	0xbe61cb16	-0.22050127
39	0xbc3da22c	-0.011574309
40	0xbe17794d	-0.14792366
41	0x3e123616	0.14278445
42	0xbe1ba7f2	-0.15200785
43	0x3e886dd1	0.26646283
44	0xbd60c168	-0.054871947
45	0xbd1c71a7	-0.038194325
46	0xbe71dea5	-0.23620088
47	0x3c99efa9	0.018791037
48	0xbdc42ccd	-0.095788576
49	0xbdde5780	-0.10856533
50	0xbe7f55e8	-0.24935114
51	0xbda1fcb6	-0.07909529
52	0xbe4daa52	-0.20084503
53	0x3d78c914	0.060738638
54	0xbe58c157	-0.21167503
55	0x3e9862b7	0.29762813
56	0xbe1dc274	-0.15406209
57	0x3e725f7d	0.23669238
58	0xbd4a1550	-0.04933673
59	0xbd2d296f	-0.042275842
60	0xbe56e3ac	-0.20985287
61	0x3c9cea9a	0.019154835
62	0xbda7dc47	-0.081963114
63	0xbe509d03	-0.20372395
64	0xbe5b5797	-0.21420132
65	0x3e2c7579	0.16841687
66	0xbe1debbb	-0.15421955
67	0xbd255002	-0.040359505
68	0xbe760a94	-0.24027473
69	0xbd91fdfa	-0.0712852
70	0xbd4d8783	-0.050178062
71	0xbdc5d2c2	-0.096593395
72	0xbe57931a	-0.21052209
73	0xbdc8b482	-0.09800054
74	0xbe8a9806	-0.2706911
75	0x3bb1c5dc	0.005425198
76	0xbe15edd6	-0.14641508
77	0x3e818116	0.25293797
