results/UNSW/UNSW_model/Grassman_model_dim_2_std_client_20_iter_20_lr_0.0001_sub_0.1_localEpochs_30.npy (npy, 440 bytes, 1 tensors)

array f4 [39, 2]
000000 5c 6d 28 be 30 a8 04 be 0b e4 15 bd d9 51 06 bd
       -0.16447967 -0.12954783 -0.03659443 -0.0327929
000010 b0 78 e6 bd 2d c0 25 be d0 82 2c be cc 12 45 be
       -0.11253488 -0.1618659 -0.16846776 -0.19245452
000020 e4 9c 17 be c0 04 ba bd b6 26 d7 bd b1 8d a0 bc
       -0.14805943 -0.09082937 -0.105054304 -0.019598814
000030 08 6a a5 bc a8 bc 6a bd 30 40 ce bd 88 e3 c8 bd
       -0.020192161 -0.057308823 -0.100708365 -0.09809023
000040 32 9c 56 be f8 9f 28 bd 82 e1 53 bd 6c b9 77 bd
       -0.20958021 -0.041168183 -0.051728733 -0.060479566
000050 58 97 5a be 08 b1 e9 bd 0c b3 14 be 31 02 6c be
       -0.21346796 -0.11410719 -0.14521426 -0.23047711
000060 da 20 09 be 77 33 65 bd 78 5d 74 be 22 5c dd 3e
       -0.13391438 -0.055957284 -0.2386378 0.43234354
000070 3a 53 8d bd 98 08 aa bd e2 e2 fa bd e4 73 96 be
       -0.0690064 -0.083024204 -0.12250306 -0.29385293
000080 70 38 7d bd 90 a6 4d bd 32 c7 2f bd fa 9d 48 3d
       -0.0618214 -0.050207675 -0.042914577 0.048978783
000090 c6 94 c9 bd 40 8a ae be 54 f1 5c be 83 44 65 bc
       -0.098428294 -0.3408985 -0.21576434 -0.013993385
0000a0 d4 71 14 be f8 75 0e 3e 3e f8 18 be d2 fc 86 3e
       -0.14496547 0.13912189 -0.14938447 0.26364762
0000b0 1e 95 4f bd f5 b3 2a bd 2c 23 75 be 30 3a 8d 3c
       -0.05067932 -0.041675527 -0.23939198 0.01723966
0000c0 c6 3e c2 bd 12 06 d7 bd 86 31 7f be 28 87 a9 bd
       -0.09484629 -0.10499205 -0.24921235 -0.08277732
0000d0 8a ec 4d be 1c 11 72 3d bf 11 60 be 5c 45 9b 3e
       -0.20109764 0.059098348 -0.2188177 0.30326355
0000e0 3a 5c 1e be 6e 88 6f 3e 05 6d 53 bd 1e e6 23 bd
       -0.15464869 0.23391888 -0.05161764 -0.04001438
0000f0 32 8f 58 be 31 8e 7d 3c f0 d7 a8 bd 34 9b 54 be
       -0.21148375 0.015475796 -0.08244312 -0.2076233
000100 63 dd 5a be de b3 29 3e 70 f9 20 be a6 fe 30 bd
       -0.21373515 0.1657252 -0.15720153 -0.0432116
000110 80 4f 7a be f3 b8 9a bd b4 1d 3e bd 0a 8d c7 bd
       -0.2444439 -0.075548075 -0.046415046 -0.09743698
000120 bc d3 5b be d8 0e c8 bd a0 71 8c be 7a 83 c8 3b
       -0.21467489 -0.09768456 -0.2743044 0.006119189
000130 e8 9e 17 be 29 e4 7f 3e
       -0.14806712 0.2498938
