results/TON/TON_model/Grassman_model_dim_2_std_client_100_iter_30_lr_0.0001_sub_0.1_localEpochs_30.npy (npy, 520 bytes, 1 tensors)

array f4 [49, 2]
0	0xbe0920ff	-0.13391493
1	0xbe09a680	-0.13442421
2	0xbcbce975	-0.02306054
3	0xbcad8707	-0.02118255
4	0xbdb5f738	-0.08885044
5	0xbe1a4627	-0.15065823
6	0xbe0cdab6	-0.13755307
7	0xbe472ae4	-0.19449955
8	0xbe01a94c	-0.12662238
9	0xbdca5e9b	-0.09881326
10	0xbdbdb970	-0.09263885
11	0xbd242c7e	-0.040081494
12	0xbc500778	-0.012697093
13	0xbd8f8d0f	-0.07009327
14	0xbdacbfd6	-0.08435027
15	0xbdea7993	-0.1144897
16	0xbe40810a	-0.18799224
17	0xbda4c2ca	-0.080449656
18	0xbd4d0256	-0.050051056
19	0xbd80dd52	-0.062922135
20	0xbe34bd4f	-0.1765034
21	0xbe024e00	-0.12725067
22	0xbde04c19	-0.109520145
23	0xbe59f17d	-0.21283527
24	0xbde3a2ac	-0.111150116
25	0xbd991467	-0.074745946
26	0xbe6de75f	-0.23232792
27	0x3ea3bd1f	0.31980225
28	0xbd58a5f2	-0.052892633
29	0xbda8233c	-0.082098454
30	0xbdba0ba3	-0.09084251
31	0xbe85c688	-0.2612803
32	0xbd4a21f0	-0.04934877
33	0xbd35207c	-0.044220433
34	0xbd15f3c4	-0.036609426
35	0x3d1f199d	0.038842786
36	0xbd8489e9	-0.06471617
37	0xbe97ce6a	-0.2964967
38	0xbe3ed543	-0.1863604
39	0xbd2b6c0d	-0.041851092
40	0xbe05714d	-0.13031502
41	0x3db1a91f	0.086748354
42	0xbe112e4c	-0.14177817
43	0x3e435ea7	0.19079076
44	0xbd1c7b94	-0.03820379
45	0xbd4388c0	-0.047737837
46	0xbe55695a	-0.2084097
47	0xbcf4f37c	-0.029901259
48	0xbd991c53	-0.074761055
49	0xbdc61439	-0.09671826
50	0xbe59b188	-0.21259129
51	0xbdd9d259	-0.10635824
52	0xbe34fed4	-0.17675334
53	0x3c98403a	0.018585313
54	0xbe50a9aa	-0.20377222
55	0x3e5682d8	0.2094835
56	0xbe12cd55	-0.1433614
57	0x3e2719e4	0.1631847
58	0xbd27894c	-0.04090242
59	0xbd2dc3f9	-0.042423222
60	0xbe3e0053	-0.18554811
61	0xbcc93d8f	-0.024565486
62	0xbd75c285	-0.05999996
63	0xbe43094a	-0.19046512
64	0xbe46435b	-0.19361632
65	0x3dca078c	0.09864721
66	0xbe09c1ca	-0.13452831
67	0xbd81196b	-0.06303676
68	0xbe572ba3	-0.2101274
69	0xbdd87ee6	-0.10571079
70	0xbd0bc413	-0.034122538
71	0xbdb65ee4	-0.08904818
72	0xbe3cd311	-0.1843989
73	0xbdf82539	-0.12116475
74	0xbe76a318	-0.24085653
75	0xbd4061d4	-0.046968296
76	0xbe15085a	-0.14553967
77	0x3e3c3fbd	0.18383689
78	0xbe0a79ce	-0.13523027
79	0x3deeebb9	0.11666054
80	0xbcc4c417	-0.024019284
81	0xbebc6fb3	-0.3680397
82	0xbe59271b	-0.21206324
83	0x3e9d13c6	0.30679148
84	0xbe15229a	-0.1456398
85	0x3d385f53	0.045012783
86	0xbddb0204	-0.10693744
87	0x3d1e6981	0.038674835
88	0xbe2e17ad	-0.17001219
89	0x3e24efa0	0.16107035
90	0xbe36135b	-0.17780821
91	0xbd7b0f9f	-0.061294194
92	0xbe5f6275	-0.21814902
93	0x3cb5b480	0.022180796
94	0xba8e711c	-0.001086745
95	0xbd8a6ef0	-0.06759441
96	0xbe44980b	-0.19198625
97	0x3cd89d2c	0.026442133
