results/TON/TON_model/Grassman_model_dim_2_std_client_20_iter_20_lr_0.0001_sub_0.1_localEpochs_30.npy (npy, 520 bytes, 1 tensors)

array f4 [49, 2]
0	0xbe0959fc	-0.13413233
1	0xbe08c033	-0.13354568
2	0xbcbf9f66	-0.023391437
3	0xbcaf19f0	-0.021374673
4	0xbdb27e1d	-0.087154604
5	0xbe175dba	-0.14781848
6	0xbe0b9d62	-0.13634256
7	0xbe431208	-0.19049847
8	0xbdfdae42	-0.12386753
9	0xbdc4f124	-0.096163064
10	0xbdbe2b4a	-0.092856005
11	0xbd21091d	-0.03931533
12	0xbc2af595	-0.010434528
13	0xbd85a9e4	-0.06526545
14	0xbda7c409	-0.081916876
15	0xbddf723a	-0.10910459
16	0xbe3cd100	-0.18439102
17	0xbda23918	-0.07921046
18	0xbd3c90de	-0.046036594
19	0xbd76b114	-0.06022747
20	0xbe363008	-0.1779176
21	0xbe01c429	-0.12672485
22	0xbde2baeb	-0.11070808
23	0xbe591970	-0.2120111
24	0xbde348d8	-0.11097878
25	0xbd989b98	-0.07451552
26	0xbe6b819d	-0.22998662
27	0x3ea3a564	0.3196212
28	0xbd57e68f	-0.052710112
29	0xbdaa82c8	-0.08325726
30	0xbdbc30e6	-0.09189014
31	0xbe870a2d	-0.2637495
32	0xbd47df55	-0.04879697
33	0xbd39d435	-0.045368392
34	0xbd158895	-0.036507208
35	0x3d21349b	0.03935681
36	0xbd88ff4c	-0.06689319
37	0xbe988cf2	-0.29795033
38	0xbe417e97	-0.18895946
39	0xbd2c8dd7	-0.042127457
40	0xbe06e83e	-0.13174531
41	0x3db3d4e5	0.08780841
42	0xbe11fe7c	-0.14257234
43	0x3e453f3a	0.192624
44	0xbd2502f0	-0.040286005
45	0xbd41f882	-0.047356136
46	0xbe56540e	-0.20930502
47	0xbcfb046e	-0.03064176
48	0xbd9b3956	-0.07579295
49	0xbdc65a1b	-0.09685155
50	0xbe5ad1e9	-0.21369137
51	0xbddd2d48	-0.10799652
52	0xbe3572cf	-0.17719577
53	0x3c9564ee	0.018236604
54	0xbe4ffbec	-0.20310944
55	0x3e57213c	0.21008772
56	0xbe120bd8	-0.1426233
57	0x3e27e832	0.16397169
58	0xbd28773c	-0.041129336
59	0xbd2e6a29	-0.04258171
60	0xbe3ec742	-0.18630698
61	0xbcce5609	-0.02518751
62	0xbd7ad628	-0.06123939
63	0xbe43ae0e	-0.19109365
64	0xbe45f866	-0.19333038
65	0x3dca11a2	0.098666444
66	0xbe0a8db1	-0.13530613
67	0xbd82674a	-0.06367357
68	0xbe5897fe	-0.2115173
69	0xbddae2ea	-0.10687812
70	0xbd0abc53	-0.033871006
71	0xbdb1512c	-0.086580604
72	0xbe3d0988	-0.18460667
73	0xbdf9154a	-0.12162264
74	0xbe765e82	-0.2405949
75	0xbd438051	-0.047729794
76	0xbe14a846	-0.14517316
77	0x3e3d8438	0.18507469
78	0xbe0a0364	-0.13477856
79	0x3defd744	0.117109805
80	0xbcd05ada	-0.025433946
81	0xbebbcd87	-0.36680242
82	0xbe58a597	-0.21156918
83	0x3e9eb1cc	0.30995023
84	0xbe1726d6	-0.14760908
85	0x3d35caec	0.044382975
86	0xbdd883e0	-0.10572028
87	0x3d1e3bf2	0.038631387
88	0xbe2ec36a	-0.17066732
89	0x3e26334a	0.16230503
90	0xbe372156	-0.1788381
91	0xbd7d90f8	-0.06190583
92	0xbe5f3a82	-0.21799663
93	0x3cb4e413	0.02208141
94	0xbb4a6a18	-0.003088599
95	0xbd8b1712	-0.0679151
96	0xbe43827e	-0.19092748
97	0x3ccc94c6	0.024973284
